Cliff/ModelSave/MixReward.pth (torch, 3623 bytes, 5 tensors)

weight f4 [10, 2]
0	0xbf00000e	-0.50000083
1	0xbf00f413	-0.5037243
2	0x3fa0b9a0	1.2556648
3	0x3e89d093	0.26916942
4	0x3f880fbe	1.0629804
5	0xbf16c86b	-0.58899564
6	0xbe9a00b2	-0.30078655
7	0xbf228977	-0.63491005
8	0xbec3a064	-0.38208306
9	0xbfa9f05b	-1.3276476
10	0xbf86717a	-1.050338
11	0xbe7dd47d	-0.24788089
12	0xbe380064	-0.17968899
13	0x3fa6280f	1.2980975
14	0xbf667576	-0.9002298
15	0xbec28637	-0.37993023
16	0x3f733edf	0.9501781
17	0x3f0fef7e	0.5622481
18	0x3f2eae24	0.6823447
19	0xbdc004db	-0.09375926

bias f4 [10]
0	0xbf2ce7ec	-0.67541385
1	0x3f393b9d	0.7235659
2	0xbf11159d	-0.56673604
3	0xbee76543	-0.45194444
4	0x3cab712c	0.020927988
5	0xbfa08eca	-1.2543576
6	0x3f4851d4	0.7824986
7	0xbf0cea74	-0.5504525
8	0x3f654226	0.8955406
9	0xbd20dbce	-0.039272122

weight f4 [10, 10]
0	0x3e11b5e6	0.14229545
1	0xbf84638b	-1.0342878
2	0xbf3e7882	-0.7440263
3	0x3d864fe8	0.0655821
4	0xbeccc554	-0.399943
5	0xbf71f1a6	-0.9450935
6	0xbf092d97	-0.5358519
7	0xbf8907b8	-1.070548
8	0xbf81b957	-1.0134686
9	0xbf821ed4	-1.0165658
10	0xbe7a05f4	-0.24416333
11	0xbe818b76	-0.25301713
12	0xbe9f01f3	-0.31056175
13	0x3d15c0d8	0.036560863
14	0xbe26f95e	-0.16306064
15	0xbd63a7c0	-0.0555799
16	0xbe89cfc2	-0.2691632
17	0x3e62da5a	0.22153607
18	0x3c7a2fe0	0.015270203
19	0x3e80ed77	0.2518117
20	0xbd897e48	-0.06713539
21	0xbf687e1f	-0.90817446
22	0xbf78d454	-0.97198987
23	0xbe9faa06	-0.31184405
24	0xbf0bb3b0	-0.54571056
25	0x3f38b494	0.7215054
26	0xbeeb5409	-0.4596255
27	0x3f0c8cdc	0.54902434
28	0xbf5e0d77	-0.86739296
29	0xbf674f24	-0.90355134
30	0x3e764792	0.2405074
31	0xbf2ebaec	-0.6825397
32	0xbf1bdedb	-0.60886925
33	0xbe5a8f74	-0.21343786
34	0xbf4a2a70	-0.78971004
35	0xbe2ee5b1	-0.17079808
36	0xbf73bc0f	-0.9520883
37	0xbf165235	-0.5871919
38	0xbf29ddd9	-0.6635414
39	0xbe260478	-0.16212642
40	0x3de02410	0.109443784
41	0xbf02a599	-0.5103393
42	0xbf03fb76	-0.51555574
43	0x3e813bb9	0.25240877
44	0xbf55cb5e	-0.8351344
45	0x3c1396a0	0.00900808
46	0xbf782552	-0.96931946
47	0xbe1abd61	-0.15111305
48	0xbf64757c	-0.89241767
49	0xbf26a5ac	-0.65096545
50	0xbd6171c8	-0.05504015
51	0xbf2bc956	-0.6710409
52	0xbf1dc284	-0.6162493
53	0x3e253a46	0.16135511
54	0xbee34904	-0.44391644
55	0x3f20fb79	0.62883717
56	0xbf0c037e	-0.5469283
57	0x3f458157	0.7715048
58	0xbf70f92b	-0.941302
59	0xbf14dd0c	-0.5814979
60	0x3e2080dc	0.15674156
61	0xbf39958f	-0.72493833
62	0xbf7d300e	-0.9890145
63	0xbd56a6f0	-0.052405298
64	0xbeff9928	-0.49921536
65	0x3f0ce6aa	0.55039465
66	0xbef87c6d	-0.4853243
67	0x3f3cbc43	0.73724765
68	0xbf52550c	-0.8216102
69	0xbf4fa7f8	-0.81115675
70	0x3e5e9eee	0.21740314
71	0xbf0d203a	-0.551273
72	0xbf18a858	-0.5963187
73	0x3d752ea8	0.059858948
74	0xbf399ca9	-0.7250467
75	0xbdf137b2	-0.11778201
76	0xbf6483cf	-0.89263624
77	0xbf288e2e	-0.6584195
78	0xbf80afc3	-1.0053638
79	0xbf8241e5	-1.017636
80	0xbe365ac2	-0.17808059
81	0xbf642af6	-0.89128053
82	0xbf271199	-0.65261227
83	0xbc8272f0	-0.015923947
84	0xbf4317a6	-0.7620796
85	0x3f086930	0.53285503
86	0xbf273aeb	-0.65324277
87	0x3f180502	0.5938264
88	0xbefdea78	-0.49592948
89	0xbf06b575	-0.5262063
90	0x3e32b7b2	0.17452887
91	0xbf13515a	-0.5754601
92	0xbf450fae	-0.7697705
93	0x3ea15197	0.3150756
94	0xbf2018e8	-0.62538004
95	0x3ed6fffe	0.41992182
96	0xbf3ef00d	-0.7458504
97	0x3f134b27	0.5753655
98	0xbf7d1861	-0.98865324
99	0xbf7b3e74	-0.9814217

bias f4 [10]
0	0xbee781ec	-0.4521631
1	0x3cc2e430	0.023790449
2	0xbc812783	-0.015765911
3	0xbf276cf9	-0.65400654
4	0xbf6820bb	-0.9067494
5	0x3f333908	0.700089
6	0x3f01a0ca	0.5063597
7	0xbeff4fd9	-0.49865606
8	0x3f5b3fc0	0.8564415
9	0x3f86954b	1.0514311

weight f4 [1, 10]
0	0xbf2feea0	-0.6872349
1	0x3e086f40	0.13323689
2	0xbf2993e7	-0.66241306
3	0xbf2970a9	-0.6618753
4	0x3f2f1cbf	0.6840324
5	0x3f35be7f	0.709938
6	0x3f12ab41	0.5729256
7	0xbf1d6758	-0.61485815
8	0x3f2713f8	0.65264845
9	0xbf4344b8	-0.7627673
