Cliff/ModelSave/PreReward.pth (torch, 3623 bytes, 5 tensors)

weight f4 [10, 2]
00000000: 9af3 bfbe 2df2 e3be 093c e4be c2f3 20bf
00000010: 1eec 9dbf 19bc 0ebf bb10 c2be cee1 373f
00000020: 5a57 803f 7af0 c53f 559a b6be 48a8 24bf
00000030: 2f9a 86bf abaf babd 1c7f 55bf 39c6 3bbf
00000040: 8a3d cdbe af16 8dbf bb2f aabe 49d1 88be
-0.3749054 -0.44520703 -0.44577053 -0.62871945 -1.2337682 -0.55755764 -0.3790339 0.71828926
1.0026658 1.5464013 -0.3566462 -0.64319277 -1.0515803 -0.09115537 -0.8339708 -0.7334934
-0.40086013 -1.1022547 -0.3323954 -0.26722172

bias f4 [10]
00000000: d07e 04bf 5091 923e a769 6ebe 95b9 b03f
00000010: e930 8b3f dc5c 30be 1a8e 42be 4d9b 99be
00000020: 5463 1f3f 60ea debc
-0.51756 0.2862649 -0.2328249 1.3806635 1.0874301 -0.17222923 -0.1899952 -0.30001298
0.6226094 -0.027211368

weight f4 [10, 10]
00000000: c807 6dbe 5409 983d 7c2d 843d 5a31 e0be
00000010: 9136 7dbe 6869 353d 1e7b 7cbe f3f3 36be
00000020: 7801 93be 845b 5ebe fa50 733e 5e1e 95be
00000030: 121f 563e e019 703c c015 a9bd 28e0 113d
00000040: 2d24 96be 18fb 673d a0fe 1e3c 9003 6e3d
00000050: 40bd 94bb 5823 4d3d 803e c43c 7d55 8bbe
00000060: 340b 66be 534e 93be 4508 853e 823e 40be
00000070: fa50 98be 1703 92be d28d 633e 8666 16bf
00000080: c98d 56bf 7517 62bf 259d 6dbf e40a 80bd
00000090: 5d90 15bf f733 80bf da08 3f3e bb4a 9d3e
000000a0: 20c9 0d3d b745 ce3e 434c d33e c561 65bf
000000b0: 7f40 20bf 6e5a a9bd fdc6 293f 3423 1a3f
000000c0: 0a9a 13bf 9ae9 553e 2614 2b3e 3c18 22bf
000000d0: 4286 a4be 3aa3 5abf 738b 6fbf faf5 093e
000000e0: 23be acbe 4ed7 81be dbc1 8abf 4e55 073e
000000f0: 5699 96be c3fd 0abf 6700 f0be ff8f 4fbf
00000100: 44a5 5fbf a6e9 103e 4ea9 4ebf f873 1cbf
00000110: 4b2b 6ebf de89 773e 5a54 1f3e e58e 233f
00000120: 5b07 673f 8ed0 34bf 426f 41bf a45a f63d
00000130: 66cc cc3e 0ab4 373f 16e0 28bf 30f4 033e
00000140: f48e 043e 4303 bbbe 495c 91be 437a 13bf
00000150: 78c8 64bf 63b2 893e 1120 32bf 9df6 c93e
00000160: f4ac 49bf d98c 96be 7a97 7cbe 056e 2a3f
00000170: df9d d33e 1855 05bf 0945 63bf 8850 053d
00000180: 7761 a2bc 619d e93e 7cfb f8be 9a41 bcbd
-0.231475 0.07423654 0.06453988 -0.43787652 -0.24727847 0.044289976 -0.2465634 -0.17866497
-0.28712058 -0.21714598 0.23761359 -0.2912473 0.2091029 0.014654607 -0.082561016 0.035614163
-0.29324475 0.056635946 0.009704262 0.058108866 -0.004539162 0.050082535 0.023955584 -0.2721366
-0.22465211 -0.28770694 0.25982872 -0.18773845 -0.2974928 -0.28517982 0.22222069 -0.5875019
-0.83810097 -0.8831704 -0.9281791 -0.06252077 -0.58423406 -1.0015858 0.1865572 0.30721077
0.034615636 0.40287563 0.4126912 -0.8960231 -0.62598413 -0.08269201 0.6631926 0.60209966
-0.5765692 0.20889893 0.16706905 -0.6331823 -0.3213368 -0.85405314 -0.9357216 0.13472739
-0.33738813 -0.25359577 -1.084041 0.13216135 -0.2941386 -0.5429346 -0.46875307 -0.81079096
-0.8736155 0.1415163 -0.8072709 -0.61114454 -0.9303481 0.24173686 0.15559521 0.63889915
0.902456 -0.7063073 -0.7556039 0.12029007 0.39999694 0.7175909 -0.6596693 0.12886119
0.12945157 -0.36525926 -0.2839072 -0.5760843 -0.8936839 0.2689391 -0.6958018 0.39445964
-0.7877953 -0.29404333 -0.24667159 0.66574126 0.41331384 -0.5208297 -0.88777214 0.032547504
-0.019821865 0.45627883 -0.48629367 -0.091922

bias f4 [10]
00000000: 8335 60bd 0896 56be 937c 95be f512 e2be
00000010: 2c77 423f 3022 f1be 6751 f2be e7cc 263f
00000020: 0c15 68bd 49ec 1d3f
-0.054738533 -0.2095567 -0.29196605 -0.44155088 0.7596309 -0.47096395 -0.4732773 0.65156406
-0.056660697 0.6168867

weight f4 [1, 10]
00000000: 4745 e9bd c297 423e a3de 20be 1310 dfbe
00000010: e0ec 053f 0cb3 133f 9a9c 03bf ea2a 0b3f
00000020: 27fc ac3e a2e5 133f
-0.11390167 0.19003204 -0.15709929 -0.4356695 0.5231457 0.5769508 -0.5141083 0.54362357
0.33786127 0.57772267
